tudui_9_gpu.pth (torch, 589232 bytes, 10 tensors)

weight f4 [32, 3, 5, 5]
0	0xbdd2846e	-0.10279165
1	0xbe15283f	-0.14566134
2	0xbc03e6f0	-0.008050665
3	0x3d81706c	0.06320271
4	0xbd0f7104	-0.03501989
5	0xbd87d101	-0.06631661
6	0xbe3bd374	-0.18342382
7	0xbce0cd42	-0.027441625
8	0x3e013e03	0.12621312
9	0x3d874c18	0.066063106
10	0xbca83b0d	-0.02053597
11	0xbe133294	-0.14374763
12	0x3dca710d	0.09884844
13	0x3a859f55	0.0010194579
14	0xbd9b1acc	-0.075734705
15	0x3c203385	0.009777908
16	0xbbf3fee2	-0.007446156
17	0x3d316320	0.043307424
18	0x3dddd226	0.10831098
19	0xbdf42670	-0.11921394
20	0xbe13de41	-0.14440252
21	0x3dbe5ec1	0.092954166
22	0x3df922f4	0.1216487
23	0x3d44bbbd	0.048030604
24	0xbd4931cc	-0.049119756
25	0x3c5c94e7	0.013463235
26	0xbe15e7bc	-0.14639181
27	0xbdc19d67	-0.0945385
28	0x3db38dbc	0.08767268
29	0xbdc2665b	-0.09492179
30	0x3c31e43f	0.010857641
31	0xbbf526db	-0.0074814386
32	0xbd827836	-0.06370585
33	0x3e154982	0.14578822
34	0x3e2e3516	0.17012438
35	0x3d8f555f	0.06998705
36	0x3ca793c9	0.020456212
37	0x3d9c7c5f	0.076409094
38	0x3d4d3003	0.050094616
39	0x3db79acc	0.08965072
40	0xbc3f8c30	-0.011691138
41	0xbb296f56	-0.0025853715
42	0x3b67c12f	0.003536295
43	0x3ce8b1ea	0.028405149
44	0x3dadb898	0.08482474
45	0x3d1492b9	0.036272738
46	0x3d735767	0.059409525
47	0x3e4186d7	0.18899094
48	0x3d5a9297	0.053362455
49	0xbd50b245	-0.05095126
50	0x3da25616	0.07926576
51	0xbe2727bb	-0.1632375
52	0xbd4efe78	-0.05053565
53	0xbd9ece3e	-0.07754181
54	0xbdb9d9c6	-0.0907474
55	0x3bb671ce	0.005567766
56	0xbdba1c9c	-0.09087488
57	0xbe0be47e	-0.13661382
58	0xbd97ad83	-0.074061416
59	0x3e0a56a4	0.13509613
60	0xbd864416	-0.06555955
61	0x3caa2516	0.020769637
62	0x3dcba801	0.099441536
63	0xbdb0fb58	-0.0864169
64	0xbdb28af0	-0.087179065
65	0xbd742710	-0.059607565
66	0x3c80f17c	0.015740149
67	0xbd6283b2	-0.055301376
68	0x3d12c8a6	0.035835885
69	0xbdb7b76d	-0.089705326
70	0xbdd8175f	-0.10551333
71	0x3d8f68c6	0.07002406
72	0x3d9ba9aa	0.0760072
73	0xbd24781c	-0.040153608
74	0x3c4423a3	0.011971387
75	0xbd609991	-0.054833952
76	0xbd8af20e	-0.067844495
77	0x3db1d90f	0.08683979
78	0xbc56fbbf	-0.013121544
79	0x3e392422	0.1808019
80	0xbc4028ed	-0.0117285075
81	0x3d319dc0	0.043363333
82	0xbda66095	-0.0812389
83	0x3d5eedd0	0.054426014
84	0x3e315120	0.17316103
85	0xbdeed816	-0.11662309
86	0xbe3b29cb	-0.18277662
87	0x3d81fb43	0.063467525
88	0x3dd96d3e	0.106165394
89	0x3e54d6fd	0.20785137
90	0x3b57d460	0.0032932982
91	0xbe0e14a9	-0.13875069
92	0xbddf1752	-0.1089312
93	0xbd661ef4	-0.056181863
94	0xbca5a3f1	-0.020219775
95	0x3db66a46	0.08906989
96	0x3c808624	0.015688963
97	0xbe51b3c1	-0.20478727
98	0xbc9c6673	-0.01909182
99	0x3dc004d1	0.09375919
100	0x3c4be2a8	0.012444176
101	0x3d4cbd76	0.04998537
102	0xbc72eb5b	-0.014826621
103	0xbda6b356	-0.08139674
104	0x3e790597	0.24318539
105	0xbe03b434	-0.12861711
106	0xbc1c1074	-0.009525407
107	0xbdfe2df3	-0.12411108
108	0xbd0dd1f0	-0.03462404
109	0x3e8c01ae	0.27345031
110	0xbe281e2f	-0.16417764
111	0xbd7c6b8f	-0.061626013
112	0xbdbcef13	-0.09225287
113	0x3e2a6ece	0.16643831
114	0x3d20609b	0.03915463
115	0xbc6ceb26	-0.014460361
116	0x3d042897	0.032265272
117	0xbe04a57c	-0.12953752
118	0x3dc8bf92	0.09802164
119	0x3e3f77e3	0.18698077
120	0x3d4c2a82	0.049845226
121	0xbdc3e7b5	-0.09565679
122	0xbe17a6d3	-0.14809732
123	0x3db8d250	0.09024489
124	0x3e04008e	0.12890837
125	0xbde6c21e	-0.11267494
126	0xbe28f234	-0.16498643
127	0xbdfd1976	-0.12358372
128	0xbe0b5338	-0.13605964
129	0x3e05e304	0.13074881
130	0xbe4be26a	-0.19910589
131	0xbdfec370	-0.124396205
132	0xbe51f637	-0.2050408
133	0xbdc4511e	-0.095857844
134	0x3e533d7a	0.2062892
135	0xbe561da1	-0.2090974
136	0xbc83d230	-0.016091436
137	0xbc373701	-0.011182548
138	0xbd93c143	-0.07214596
139	0xbcf65f12	-0.03007463
140	0xbdd88bc6	-0.10573535
141	0xbe28e804	-0.16494757
142	0xbe481d3f	-0.19542406
143	0x3da796b0	0.08183038
144	0xbd0d7037	-0.034530845
145	0xbd7bc959	-0.061471317
146	0xbe35fee3	-0.17773013
147	0xbe3f3ca6	-0.1867548
148	0xbb7160a7	-0.003683129
149	0x3d274b04	0.040843025
150	0xbdd14ee3	-0.102201246
151	0xbc843caf	-0.016142217
152	0x3cdb98e9	0.026806312
153	0xbd997187	-0.07492357
154	0xbcfe4113	-0.03103689
155	0xbdac37ec	-0.08409104
156	0xbe5b7597	-0.21431576
157	0xbe395d8a	-0.18102089
158	0xbdd0a1bd	-0.10187099
159	0xbdb670d5	-0.0890824
160	0xbe2187ff	-0.15774535
161	0xbe56c592	-0.20973805
162	0xbdd730ff	-0.10507392
163	0x3dc7e0e6	0.09759693
164	0xbd6eb8de	-0.05828177
165	0x3d4069e7	0.046975996
166	0xbc0e3299	-0.008679056
167	0xbb608230	-0.0034257285
168	0xbd8963b8	-0.06708473
169	0x3cbccf44	0.02304805
170	0x3d09952a	0.03358952
171	0x3c3da431	0.011574791
172	0xbbffda92	-0.007808038
173	0xbc75ede2	-0.015010329
174	0x3de70291	0.112797864
175	0xbcf9910e	-0.030464675
176	0x3d13600d	0.035980273
177	0x3bbba949	0.0057269675
178	0xbdb7c826	-0.08973722
179	0x3d87ff6c	0.06640515
180	0xbdc6d69a	-0.09708901
181	0xbc6d296c	-0.014475208
182	0xbb9bdfc5	-0.0047569
183	0x3d27b5b1	0.04094476
184	0xbbe1cd01	-0.0068908934
185	0xbc52c22c	-0.012863677
186	0x3c274534	0.01020937
187	0xbd44e083	-0.048065674
188	0x3e243722	0.16036656
189	0x3d53eb96	0.051738344
190	0x3c26bd94	0.010177035
191	0x3c98447e	0.018587347
192	0x3d304398	0.043033212
193	0x3e1a1734	0.15047914
194	0x3e02c249	0.12769426
195	0x3dba383e	0.090927586
196	0x3e534c06	0.2063447
197	0x3e565921	0.20932437
198	0x3e199d82	0.1500149
199	0x3e01155b	0.12605803
200	0xbd5bbbe1	-0.053645972
201	0xbe05fa94	-0.13083869
202	0x3da0da08	0.07854086
203	0xbdf3b2b8	-0.11899322
204	0x3cf7548a	0.030191679
205	0xbc9d26d8	-0.019183561
206	0xbe1d1ceb	-0.15343063
207	0xbd10aabf	-0.035319086
208	0xbc2819ed	-0.010260087
209	0xbb1fd17e	-0.0024386342
210	0xbd85df78	-0.06536764
211	0xbdfdc5f7	-0.123912744
212	0x3a63c2a3	0.0008688366
213	0x3cfe049c	0.031008057
214	0xbdc8b65d	-0.09800408
215	0x3d341d90	0.043973505
216	0xbd4ed7f4	-0.050498918
217	0xbd9e6688	-0.077344
218	0x3dc773d5	0.0973889
219	0x3dec179a	0.11527939
220	0xbd764cb8	-0.06013176
221	0x3d92d252	0.07169022
222	0xbc02ee13	-0.007991332
223	0x3e177648	0.14791214
224	0xbcd9b3e2	-0.026575033
225	0xbd882600	-0.06647873
226	0x3e06f3c2	0.13178924
227	0xbdb94bb3	-0.090476416
228	0xbdc1be2f	-0.09460103
229	0xbd977ad7	-0.07396477
230	0xbde1622d	-0.11005054
231	0x3d6f9ca2	0.058498986
232	0x3de4a27e	0.111638054
233	0xbdcbdec7	-0.09954601
234	0x3b9e0a64	0.004823016
235	0xbbeecae4	-0.00728737
236	0xbe11ce6b	-0.14238898
237	0xbc7a3287	-0.015270836
238	0xbcd167e3	-0.025562232
239	0xbda9ea47	-0.08296638
240	0x3c98841d	0.018617684
241	0x3cdf6e84	0.027274378
242	0xbdcd42d3	-0.10022511
243	0x3d6858be	0.056725256
244	0xbdc35b0c	-0.0953885
245	0x3b3647b6	0.002781374
246	0xbe242288	-0.16028798
247	0xbcf8a1dc	-0.030350618
248	0x3c49973e	0.012304125
249	0xbdf80dbf	-0.12111997
250	0xbd07f644	-0.03319384
251	0x3e0d699b	0.13809817
252	0x3e042413	0.12904386
253	0x3c93154d	0.017954493
254	0x3d8a3a6b	0.067494236
255	0xbda82f2d	-0.08212123

bias f4 [32]
0	0x3e0f3cd2	0.13988045
1	0x3ee04779	0.4380453
2	0x3da8fc41	0.082512386
3	0x3d617c6f	0.05505031
4	0x3b4e725d	0.0031501271
5	0x3d108e89	0.035292182
6	0x3d020b4e	0.031749062
7	0xbe652bac	-0.22379941
8	0x3eb9a84c	0.36261213
9	0xbd4c937e	-0.049945347
10	0x3d952559	0.07282514
11	0xbe8e9edb	-0.27855572
12	0xbddf0143	-0.108889125
13	0x3dfb8980	0.122820854
14	0x3d701b4f	0.058619794
15	0xba9ce6a3	-0.001197059
16	0xbe44fd05	-0.19237144
17	0xbdde02b0	-0.10840356
18	0x3e74d971	0.23911072
19	0xbd8f2fe7	-0.069915585
20	0xbe073aa4	-0.13205963
21	0xbe08a59e	-0.13344428
22	0xbe1a8ac9	-0.15092005
23	0xbe332d54	-0.1749776
24	0x3e327974	0.17429143
25	0xbe7d6b9d	-0.24748082
26	0x3c1c3376	0.009533754
27	0xbe0c60d5	-0.13708813
28	0xbe1462fd	-0.14490886
29	0xbdaa9b0e	-0.083303556
30	0xbd27cbf5	-0.040965993
31	0x3e2ee5d7	0.17079864

weight f4 [32, 32, 5, 5]
0	0x3d01f952	0.03173191
1	0xbcb3696f	-0.02190086
2	0x3cba8384	0.02276779
3	0x3c1d9ac1	0.009619416
4	0xbae847d3	-0.0017721601
5	0xbb76a485	-0.0037634682
6	0x3bc36958	0.0059634857
7	0x3cb414bc	0.021982543
8	0xbcbcc049	-0.023040907
9	0x3ca49a11	0.020092996
10	0xbd0cef13	-0.034407686
11	0xbd38d583	-0.045125496
12	0xbd025e24	-0.03182806
13	0xbcaad8a9	-0.020855265
14	0xba6ac435	-0.0008955629
15	0xbbe2c639	-0.0069206026
16	0x3c2bb54c	0.010480236
17	0xbcd7cabb	-0.026341787
18	0x3b8103d1	0.0039372225
19	0xbb5ce825	-0.0033707705
20	0xbbcfd5e3	-0.006342636
21	0xbd20b3a5	-0.039233822
22	0xbd3839aa	-0.044976868
23	0xbd58fc32	-0.052974887
24	0xbc9be528	-0.019030169
25	0xbb065292	-0.0020495993
26	0x3cd6951d	0.02619415
27	0x3d7a0c16	0.061046682
28	0x3d8c14cd	0.06839905
29	0xbc02245d	-0.00794324
30	0xbcda6532	-0.026659582
31	0xbce715f0	-0.028208703
32	0xbc11383d	-0.008863506
33	0x3cbfbeaa	0.023406345
34	0x3c3f994f	0.011694266
35	0xbcee5c7f	-0.02909684
36	0x3b69c5e1	0.0035670924
37	0xbd23b787	-0.039969947
38	0x3c8b3414	0.016992606
39	0x3d7a6680	0.061132908
40	0xbbb22542	-0.0054365704
41	0x3bdf7b44	0.0068201143
42	0xbd4ef20e	-0.05052381
43	0xbcb8077b	-0.022464504
44	0x3bbf81f1	0.0058443476
45	0xbc15fb9a	-0.009154225
46	0x3b5c845b	0.0033648226
47	0x3d073289	0.03300718
48	0xbd81059d	-0.06299899
49	0xbaf465f1	-0.0018646104
50	0x3bf7a638	0.0075576566
51	0x3cf151a3	0.029457873
52	0x3cc5a54c	0.024126671
53	0x3c8a2475	0.016863087
54	0x3c0c6ca9	0.0085708285
55	0x3c8e9ff3	0.017410254
56	0x3d1fb072	0.03898663
57	0x3c9054cb	0.017618557
58	0x3d188f75	0.037246186
59	0x3bc67c7f	0.0060573216
60	0xbd0490da	-0.032364704
61	0xbca6f3d8	-0.020379946
62	0xbc4441dd	-0.011978594
63	0x3ca539db	0.02016919
64	0x3c79e245	0.015251701
65	0x3c2b5beb	0.010458927
66	0xbbe1667a	-0.0068786712
67	0x3c265691	0.010152475
68	0xbd004fd8	-0.031326145
69	0xbcaa201c	-0.020767264
70	0xbca4cee0	-0.020118177
71	0xbaa63057	-0.0012679201
72	0xbc123bd6	-0.008925399
73	0xbd365e9e	-0.044523828
74	0xbd00aaeb	-0.031413
75	0xbcde9be8	-0.027173951
76	0x3c82b736	0.015956502
77	0xbcc601b9	-0.024170743
78	0x3d1be9e1	0.03806484
79	0x3ac2de93	0.0014867358
80	0x3a895ad6	0.0010479342
81	0xbca73362	-0.020410243
82	0xbd0abc80	-0.033871174
83	0x3bdc7bb6	0.0067286147
84	0x3c46d62c	0.0121360235
85	0x3d089f69	0.03335515
86	0xbd156ac2	-0.036478765
87	0xb9f6bc74	-0.00047061185
88	0xbc54d22e	-0.012989564
89	0xbc808476	-0.015688162
90	0xbd1aa3cf	-0.037753876
91	0x3c05f182	0.008175256
92	0x3c50f282	0.012753131
93	0x3c685622	0.014180692
94	0x3c157231	0.009121464
95	0x39a13e20	0.000307546
96	0xbc50fb50	-0.01275523
97	0x3c2de343	0.010613265
98	0x3c8cfdf5	0.01721094
99	0xbb655f3a	-0.0034999386
100	0x3cbb0caf	0.022833196
101	0xbbf8ca0f	-0.0075924466
102	0x3ce2633c	0.02763521
103	0x3d072ade	0.032999866
104	0x3c3d865b	0.011567677
105	0x3d0714f4	0.032978967
106	0xb9a9c3d4	-0.00032380095
107	0x3cc7fd79	0.024412857
108	0xbb3f4ac2	-0.0029188846
109	0x3d1de302	0.03854657
110	0x3c4300ee	0.011902077
111	0xbcd85199	-0.026406096
112	0xbcadd7f5	-0.02122114
113	0xbcf3bbd9	-0.029752659
114	0x3b8ab9dd	0.0042335824
115	0xbceca0d5	-0.028885284
116	0x3ca39b4a	0.019971509
117	0x3d063111	0.032761637
118	0xbc268a04	-0.010164741
119	0xbcfce9bf	-0.030873178
120	0xbce9185c	-0.028453998
121	0x3c99e71a	0.018786956
122	0x3c9491b4	0.018135883
123	0x3c62de03	0.013846877
124	0xbc703723	-0.014661583
125	0xbcf350ac	-0.029701553
126	0xbc17b745	-0.009260003
127	0x3caf1065	0.021370122
128	0x3c8a7bcf	0.01690474
129	0xbc9c79b8	-0.019101009
130	0xbd052ab1	-0.032511417
131	0x3c5724cf	0.013131334
132	0x3c714224	0.014725242
133	0x38e73b29	0.00011025958
134	0xbba46f05	-0.0050181174
135	0xbcdfd458	-0.027322933
136	0xbca8bcc6	-0.020597827
137	0x3ba0c181	0.00490588
138	0x3c3a9ea9	0.011390367
139	0xbad0e68c	-0.0015937849
140	0xbb401a37	-0.00293125
141	0xbb37f13c	-0.002806737
142	0xbcaee3b8	-0.02134882
143	0xbcf49ecf	-0.029860882
144	0xbcd663ca	-0.02617063
145	0xbcb1f0e0	-0.021721303
146	0xbc8aeb2f	-0.016957847
147	0x3bb76245	0.0055964314
148	0x3c9858f4	0.018597104
149	0x3bad4e12	0.0052888477
150	0xbd0e9a51	-0.034815136
151	0xbd08cacc	-0.033396527
152	0x3b05faa9	0.0020443595
153	0x3d35cba1	0.04438365
154	0x3d373006	0.044723533
155	0xbbcabc2c	-0.0061869826
156	0x3c8f4044	0.017486699
157	0xbc9d015f	-0.019165693
158	0xbc116e52	-0.0088764
159	0x3d07f088	0.033188373
160	0xbbe4e2bc	-0.0069850367
161	0x3b413d6a	0.0029486069
162	0xbd028168	-0.031861693
163	0xbd32a1ca	-0.043611325
164	0x3c993466	0.018701743
165	0xbcbf5bb5	-0.023359159
166	0x3c91d307	0.017800821
167	0x3ca682d0	0.020326048
168	0xbd237e8f	-0.039915618
169	0xbd224066	-0.039612196
170	0x3b25fed6	0.0025328896
171	0xbd041f72	-0.03225655
172	0x3b583252	0.0032988978
173	0x3bbb9b94	0.0057253335
174	0xbc23f722	-0.0100076515
175	0x3c69774d	0.014249635
176	0x3b1cee1f	0.0023945642
177	0xbd21d91a	-0.039513685
178	0x3cd807ae	0.02637085
179	0x3cf7c656	0.030245941
180	0x3c6d7674	0.014493573
181	0x3c2fc85e	0.010728924
182	0xbccce6e3	-0.02501244
183	0xbbfa51d4	-0.007639149
184	0x3c1590ee	0.009128792
185	0x3bb27a56	0.0054467125
186	0x3cff17ab	0.031139215
187	0x3ce0254d	0.027361536
188	0xbc1e4a12	-0.009661214
189	0x3c88eeef	0.016715495
190	0xbd3454c7	-0.044026162
191	0x3b81a842	0.0039568255
192	0x3c4876d8	0.012235366
193	0xbd0013ae	-0.031268768
194	0xbd02d5a1	-0.031942014
195	0x3b2c6656	0.0026306114
196	0x3c8b7151	0.017021807
197	0xbbbb4483	-0.0057149543
198	0x3cbfa52a	0.023394186
199	0x3b292047	0.0025806592
200	0x3cee0c4b	0.029058596
201	0xbcdfe3f0	-0.027330369
202	0x3cf9f535	0.030512432
203	0xbcd3472e	-0.025790777
204	0xbcffd3fc	-0.031229012
205	0x3c77459f	0.015092283
206	0xbd101dfe	-0.035184853
207	0xbb8f97c9	-0.004382108
208	0xb91deff5	-0.00015062078
209	0x3d195f3e	0.037444346
210	0xbc91858a	-0.017763872
211	0xbd23270c	-0.03983216
212	0xbd03bff6	-0.03216549
213	0x39803fc0	0.0002446156
214	0x3c8f81c4	0.017517932
215	0xbb5a0e1e	-0.0033272575
216	0xbb959dec	-0.004565945
217	0xbd0dbf05	-0.034606
218	0x3b90113f	0.004396587
219	0x3b099ddd	0.0020998635
220	0xbbfd684f	-0.007733382
221	0x3c99bd0e	0.018766906
222	0xbd09ca79	-0.03364036
223	0xbca977cd	-0.020687008
224	0xbd0a46f8	-0.033759087
225	0x3d27ffac	0.041015312
226	0x3d2db863	0.042412173
227	0xbcd7bbb0	-0.026334614
228	0xbcf0295a	-0.029316593
229	0xbcca4cdf	-0.024694858
230	0x3cdb776d	0.026790345
231	0x3d6bf179	0.057603333
232	0x3d48c087	0.049011733
233	0xbb2974fa	-0.0025857077
234	0xbcb25132	-0.021767233
235	0xbbcddf3f	-0.0062827165
236	0xbb89bdb2	-0.0042035216
237	0x3cd12f79	0.025535332
238	0x3cf88553	0.030337011
239	0xbcb4ee16	-0.022086184
240	0xbd23a5a9	-0.039952908
241	0xbc41b45a	-0.011822784
242	0x3bbeff2d	0.005828759
243	0x3d07885c	0.033089027
244	0xbbc60cec	-0.006044021
245	0x3c91fa4d	0.017819548
246	0xbd521209	-0.05128673
247	0xbcd3e4fb	-0.025866022
248	0x3c7068de	0.01467344
249	0x3d1e0a86	0.038584255
250	0xbbbe4e3e	-0.005807667
251	0x3ce6b1ce	0.028160956
252	0x3bf8933f	0.0075859125
253	0xbce8e8be	-0.028431293
254	0x3bcc5616	0.006235848
255	0x3d25316d	0.04033034

bias f4 [32]
0	0xbd5e5b0a	-0.05428604
1	0xbc22d332	-0.009938048
2	0xbdcfeff6	-0.10153191
3	0xbd9ec601	-0.0775261
4	0xbb01b4ec	-0.0019791676
5	0x3cd199ef	0.025586097
6	0xbddaaeba	-0.10677858
7	0xbd31e30b	-0.043429416
8	0xbd879256	-0.06619708
9	0xbdc122e8	-0.09430486
10	0xbd64a9ed	-0.055826116
11	0xbd0f37f3	-0.034965467
12	0xbcccdad2	-0.025006685
13	0xbd4ef3ab	-0.05052535
14	0xbd7575f0	-0.059926927
15	0xbd905d44	-0.07049039
16	0xbe23f3d6	-0.16010985
17	0xbd0fc813	-0.035102915
18	0xbd737004	-0.059433
19	0xbcff3d0d	-0.031157041
20	0xbda0004e	-0.07812558
21	0x3c4acd92	0.012378113
22	0x3d091146	0.03346374
23	0xbd251b85	-0.040309448
24	0xbd2f4feb	-0.042800825
25	0xbda53310	-0.0806638
26	0xbd8c6d9a	-0.06856842
27	0xbda2e150	-0.07953131
28	0xbcaa030a	-0.020753402
29	0xbe2bc3d4	-0.16773921
30	0xbd732db7	-0.05936977
31	0xbd656d57	-0.056012478

weight f4 [64, 32, 5, 5]
0	0xbc48764f	-0.012235238
1	0xbcd48032	-0.025940035
2	0xbc71e4dd	-0.014764038
3	0xbc1eb793	-0.009687322
4	0x3c10348d	0.008801592
5	0x3c77d988	0.015127547
6	0xbc0947f6	-0.008378973
7	0xbcabb641	-0.020960929
8	0xbc2a03cc	-0.010376882
9	0xbcf1e8c9	-0.029529946
10	0x3b5946e9	0.0033153838
11	0x3d368edd	0.04456984
12	0x3d448aa4	0.04798378
13	0x3c991f6f	0.018691747
14	0x3c8ed7a4	0.01743681
15	0xbd13714b	-0.035996716
16	0x38bcd63a	9.0044414e-05
17	0x3d238a8a	0.039927043
18	0x3d027b48	0.03185585
19	0xb9a7dfe2	-0.00032019528
20	0x3ab0dede	0.0013494154
21	0xbc9bba60	-0.019009769
22	0x3c3da756	0.0115755405
23	0x3d028b3e	0.031871073
24	0xbc3ebae6	-0.01164124
25	0x3ca04103	0.01956225
26	0x3b479358	0.0030452814
27	0xbbd4ebda	-0.0064978423
28	0xbcd101a2	-0.025513474
29	0xbc89b6eb	-0.016810855
30	0xbcf8d858	-0.030376598
31	0x3c402ffa	0.0117301885
32	0xbbf32454	-0.007420102
33	0xbc01f5f9	-0.00793218
34	0x3cdbec75	0.02684615
35	0xbca2a557	-0.01985423
36	0xbc2a14bf	-0.010380923
37	0x3d6b876e	0.057502203
38	0xbb4f273c	-0.003160908
39	0x3d703941	0.05864835
40	0xbd25b8c3	-0.040459406
41	0xbd0ff6a1	-0.035147313
42	0x39eee84f	0.0004556798
43	0xbba96261	-0.0051691984
44	0x3d2cd008	0.04219058
45	0xbd4e9a61	-0.050440196
46	0xbd11454b	-0.035466474
47	0x3b9f04cf	0.004852868
48	0xbc5b3041	-0.013378204
49	0x3b51c136	0.0032006032
50	0x3cd70fdf	0.026252685
51	0xbcf18c99	-0.029485987
52	0x3b824fb5	0.003976787
53	0xbd1735e7	-0.03691664
54	0x3c8d513f	0.017250655
55	0x3b6e5ad5	0.0036370058
56	0x3c1ec66b	0.009690861
57	0xbccad0f1	-0.024757834
58	0xbd0fc5b4	-0.035100654
59	0xbd17e8d1	-0.037087265
60	0x3d04d3ad	0.032428432
61	0x3b7b5a67	0.0038353445
62	0x3c9ae935	0.01891003
63	0x3ce0adb1	0.027426573
64	0x3c632bde	0.013865439
65	0xbb96bb74	-0.004599983
66	0x3d5b48da	0.053536274
67	0xba0a1d51	-0.0005268651
68	0xbd084e19	-0.033277605
69	0xbc1dd103	-0.009632352
70	0xbcbe2d20	-0.023214877
71	0x3cc12c27	0.023580624
72	0x3ccff960	0.025387466
73	0xbc9bec4c	-0.019033574
74	0x3c764919	0.015032076
75	0xbd19a5b1	-0.03751153
76	0x3d079165	0.033097643
77	0x3a3f4fde	0.0007297973
78	0xbacded34	-0.0015710951
79	0xbce7e525	-0.028307507
80	0x3cb8a300	0.022538662
81	0x3d20b540	0.039235353
82	0xbd348bf0	-0.044078767
83	0xbced182d	-0.028942192
84	0x3cca80cf	0.024719624
85	0xbc7495ad	-0.014928264
86	0x3d333ed9	0.043761108
87	0x3c110d49	0.008853265
88	0xbcc7496b	-0.024327
89	0xbb81713a	-0.0039502652
90	0xbd390a94	-0.045176104
91	0x3d415957	0.04720434
92	0xbd16c4d1	-0.036808793
93	0x3b897bad	0.0041956515
94	0xbba1e7b9	-0.0049409536
95	0xbc91efc4	-0.017814524
96	0xbc704437	-0.014664701
97	0xbcd87399	-0.026422309
98	0x3c8efc72	0.01745436
99	0xbc1ffe48	-0.009765215
100	0xbd668698	-0.056280702
101	0xbd20f2ef	-0.03929418
102	0xbd6d2389	-0.057895217
103	0x3bdd7d66	0.0067593334
104	0xbce4b2f8	-0.02791737
105	0xbd3e34b6	-0.046436988
106	0xbcc7318e	-0.024315622
107	0x3aefae87	0.0018286266
108	0x3c9059ab	0.017620882
109	0x3cd27b51	0.025693567
110	0x3c32815f	0.010895102
111	0x3bb34c5d	0.0054717497
112	0xbd42e7a1	-0.04758418
113	0xbbe5f878	-0.007018145
114	0xbce4df99	-0.02793865
115	0xbb98dd83	-0.004665078
116	0xbc1c9f27	-0.009559429
117	0x3ac369dd	0.0014908869
118	0xbd03f969	-0.032220278
119	0x3cf50c64	0.029913135
120	0x3cb916d7	0.022593899
121	0xbc5307c8	-0.012880273
122	0x3d163469	0.036671076
123	0x3ca18ea2	0.019721333
124	0x3bc07a20	0.0058739334
125	0xbc68c119	-0.014206194
126	0xbb8a8b5d	-0.004228039
127	0x3d4ce28b	0.050020736
128	0x3ce9e3f7	0.028551085
129	0x3d02d51a	0.03194151
130	0x3d24a5e3	0.040197264
131	0xbc9249b7	-0.017857416
132	0x3d87ec1a	0.0663683
133	0xbc07b7c3	-0.008283558
134	0x3cd17c83	0.025572067
135	0xbc1e10d3	-0.009647566
136	0xbd226244	-0.039644495
137	0x3af6dd0c	0.0018834188
138	0xbc46cbeb	-0.012133579
139	0x3c633887	0.013868458
140	0x3d18466e	0.037176542
141	0x3c465033	0.012104082
142	0xbc966b89	-0.018361824
143	0xbcaf9766	-0.021434497
144	0xbd00f4dc	-0.031483516
145	0x3c8740f7	0.01651047
146	0xbb5a746b	-0.003333355
147	0x3bc0cc31	0.0058837165
148	0x3d08f218	0.033434004
149	0x3c5d6062	0.013511749
150	0x3d1b0c38	0.03785345
151	0x3c1d2c34	0.009593058
152	0xbcb9df50	-0.022689492
153	0xbd0304c4	-0.031986967
154	0xbce76445	-0.028246054
155	0x3cfe66c7	0.031054867
156	0x3b9b1be0	0.0047335476
157	0x3cae0f8d	0.02124765
158	0xbd10491d	-0.035225976
159	0xbd260f6a	-0.040542044
160	0xbc97b01c	-0.018516593
161	0x3c1be4c8	0.009514995
162	0xbc981ca1	-0.018568339
163	0xbbd57be9	-0.0065150154
164	0x3ca68c07	0.020330442
165	0xbcaaa81d	-0.020832116
166	0x3d355159	0.044267032
167	0x3d2d841c	0.042362317
168	0x3c8541a3	0.01626665
169	0xbbdc5e8a	-0.006725137
170	0x3c613eb9	0.013747864
171	0xbc5e33e5	-0.013562177
172	0xbc5f6c78	-0.013636701
173	0xbad0adec	-0.0015920973
174	0xbcb848a8	-0.022495583
175	0x3d0d81c7	0.034547593
176	0xbc9c0d54	-0.019049324
177	0x3cc3c408	0.023897186
178	0x3c419cba	0.011817152
179	0x3cf31d4c	0.029677056
180	0x3d137c93	0.036007475
181	0xbc261737	-0.010137371
182	0x3c737d0d	0.014861357
183	0xbcd08950	-0.0254561
184	0x3b78edc6	0.003798352
185	0x3ba96dfe	0.005170583
186	0xbaab4b1a	-0.0013068647
187	0xbc1313a1	-0.008976848
188	0x3ccd422b	0.025055965
189	0xbb04a42d	-0.0020239458
190	0xbaf80e0d	-0.0018925086
191	0xbc3c2fc4	-0.011485998
192	0xbc99c86c	-0.018772326
193	0xbcad1de8	-0.021132424
194	0x3c372aaa	0.0111796055
195	0x3d300a49	0.04297856
196	0xbb974eb1	-0.004617535
197	0xbc84ce91	-0.01621178
198	0xbcc5e79c	-0.024158292
199	0x3cf42830	0.02980432
200	0x3c45806a	0.012054542
201	0x3c5b1159	0.013370835
202	0x3c02a3ff	0.00797367
203	0xbd429a18	-0.047510237
204	0xbce896e7	-0.028392268
205	0xbc0dcac3	-0.008654299
206	0xbb1a58db	-0.0023551497
207	0xbcd45d57	-0.025923414
208	0x3d194ada	0.0374249
209	0xbd120f3a	-0.035659052
210	0xbc8364f2	-0.016039345
211	0x3d0b5b53	0.03402264
212	0x3c5b4ba4	0.013384733
213	0x3bed77cc	0.007246947
214	0x3cc63c91	0.024198802
215	0x3d78f291	0.060778204
216	0x3d0864d9	0.0332993
217	0x3d30bee3	0.043150794
218	0x3bd11c09	0.006381516
219	0x3c7cc2fd	0.015427348
220	0xbbc3451d	-0.0059591667
221	0xbc590d05	-0.013247733
222	0xbcca22fd	-0.024674887
223	0x3c3378b1	0.010954068
224	0xbd1dbef1	-0.038512174
225	0xbc2d4b9f	-0.0105771115
226	0xbc66117e	-0.014042256
227	0xbcd87d23	-0.026426857
228	0xbb826384	-0.0039791483
229	0x3cb6cdc8	0.022314921
230	0x3a930873	0.0011217728
231	0x3c8614bb	0.016367307
232	0x3caa7101	0.020805838
233	0xbbc4efab	-0.006010016
234	0x3cf1cfed	0.029518092
235	0x3d6b8eab	0.057509106
236	0x3d9e2bfd	0.07723234
237	0x3c2c67e4	0.010522816
238	0x3d8076c4	0.06272653
239	0x3c8ea1a0	0.017411053
240	0x3d0820bd	0.033234347
241	0x3d3a8b75	0.045543153
242	0x3c6aab96	0.014323136
243	0xbc3cadee	-0.011516077
244	0x3c8409c1	0.016117932
245	0x3c67cf60	0.014148563
246	0xbb2589c9	-0.0025259128
247	0xbd06ccf4	-0.032910302
248	0xbca1b283	-0.019738441
249	0x3c3145d7	0.010819874
250	0xbd5b73df	-0.0535773
251	0xbd1555d8	-0.03645882
252	0xbb847b60	-0.0040430278
253	0xbae662ef	-0.0017577092
254	0xbd672bd4	-0.056438282
255	0xbd025748	-0.03182152

bias f4 [64]
0	0xbd870550	-0.0659281
1	0xbd0a954d	-0.03383379
2	0xbd8909f6	-0.06691353
3	0x3bdb9010	0.006700523
4	0x3a58f737	0.0008276584
5	0xbda53190	-0.08066094
6	0xbd32b8ab	-0.043633144
7	0xbc30da2c	-0.010794204
8	0xbc5ab868	-0.01334963
9	0xbd298da7	-0.041394856
10	0xba293ca4	-0.00064558745
11	0xbd2f302a	-0.042770542
12	0x3c66f6dc	0.014096942
13	0xbb55dd9b	-0.0032633308
14	0xbc86d31a	-0.016458083
15	0x3cd1a887	0.025593055
16	0xbbf2ccf9	-0.0074096886
17	0xbdafc6b9	-0.08582825
18	0xbc639860	-0.0138913095
19	0xbc73f36a	-0.014889577
20	0x3b8b3804	0.004248621
21	0xbd2fd482	-0.042927273
22	0xbd543a65	-0.051813502
23	0xbd665759	-0.056235645
24	0xbcdee829	-0.027210312
25	0xba4fa67c	-0.00079212314
26	0xbc80cdf1	-0.0157232
27	0xbd421b28	-0.04738918
28	0xbcd26f98	-0.025687978
29	0xbd8d19d6	-0.068896934
30	0xbcfd34fc	-0.030909054
31	0xbd4512ac	-0.04811351
32	0xbd18afba	-0.03727696
33	0xbce41dbf	-0.027846215
34	0xbd209fc7	-0.039214876
35	0xbd460dcf	-0.048353013
36	0x3b863482	0.004095615
37	0xbc9367a3	-0.017993754
38	0xbc1bb012	-0.009502428
39	0x3c081c67	0.008307553
40	0xbb8c3f09	-0.0042799753
41	0xbd54e28a	-0.051973857
42	0xbc9bdced	-0.019026244
43	0x3bff1d79	0.007785496
44	0xbd83ade8	-0.06429654
45	0xbd1476a5	-0.03624596
46	0x3b0e951e	0.0021756361
47	0xbc829a7c	-0.015942805
48	0x3bcf5390	0.0063271
49	0xbd792bef	-0.060832914
50	0x3d26b5b1	0.04070062
51	0xbac09223	-0.001469199
52	0xbd1cbb84	-0.038264766
53	0xbd0a2fb7	-0.03373691
54	0xbb19a061	-0.002344154
55	0xbc3c0a3d	-0.01147705
56	0xbd5ea1e8	-0.054353625
57	0x3bd91e23	0.006625907
58	0xbd9a8e0c	-0.075466245
59	0xbd7df90f	-0.0620051
60	0x3cfd6643	0.030932551
61	0xbc65c2cf	-0.014023497
62	0xbcc82405	-0.024431238
63	0xbc93e8bc	-0.018055312

weight f4 [64, 1024]
0	0xbc00974c	-0.007848572
1	0x3c11d3d4	0.008900601
2	0xbc9528a0	-0.018207848
3	0x3c80c990	0.015721112
4	0xbc83e11b	-0.01609855
5	0xbd49a763	-0.049231898
6	0xbc39f32a	-0.011349479
7	0x3ca98953	0.020695364
8	0xbb65c7d1	-0.0035061727
9	0x3c2f063b	0.010682638
10	0x3cb566dd	0.022143776
11	0xbc52e1fe	-0.012871264
12	0xbc049f0d	-0.008094561
13	0xbc9274ec	-0.017878018
14	0x3d135de8	0.035978228
15	0x3d226ec5	0.03965642
16	0x3ab99235	0.0014157953
17	0xbc969dd2	-0.018385801
18	0x3b6df83a	0.0036311285
19	0xbd12ce4a	-0.035841264
20	0x3bbb00e2	0.0057068923
21	0x3ce7cc1e	0.028295573
22	0x3c67069f	0.0141007
23	0x3c15c166	0.009140348
24	0xbd0f52e5	-0.034991164
25	0xbc28ba7f	-0.01029837
26	0x3c76ee22	0.015071424
27	0x3c9e3405	0.019311914
28	0xbc32504c	-0.010883402
29	0x3bcbbf82	0.006217898
30	0xbcbd0e1e	-0.02307802
31	0x3c9c69a8	0.01909335
32	0x3cad4d3d	0.021154994
33	0x3c33dc43	0.010977807
34	0x3ca52e4f	0.020163683
35	0x3c9621b1	0.018326612
36	0x3cddde4e	0.027083542
37	0xbd34653a	-0.04404185
38	0x3bb9fa9c	0.005675627
39	0x3c0b72f6	0.008511296
40	0x3992f022	0.00028026203
41	0x3d0b58a2	0.034020074
42	0xbca643ec	-0.02029606
43	0xbd1b0c33	-0.03785343
44	0x3c9187e0	0.017764986
45	0x3c8c335c	0.017114334
46	0xbd071d62	-0.032987006
47	0xbc23b953	-0.009992915
48	0xbcbc0656	-0.02295224
49	0xbc888fd2	-0.016670141
50	0xbd0b9fa7	-0.034087803
51	0x3c666cfb	0.014064069
52	0x3c7d7f74	0.015472282
53	0x3c2da8f1	0.010599361
54	0xbcc4ae6e	-0.024008956
55	0x3b60897b	0.0034261632
56	0x3cf36a01	0.029713633
57	0x3cbb7422	0.022882525
58	0x3cfe5f7b	0.031051388
59	0x3ca4c48f	0.020113258
60	0xbbd72eb2	-0.006566846
61	0xbb4a783c	-0.003089442
62	0xbcf147ad	-0.029453123
63	0xbd0d1b4c	-0.03444986
64	0xbce3cc99	-0.02780752
65	0xbbbb6ccc	-0.0057197567
66	0xbcb4f279	-0.022088276
67	0xbc8b4b6e	-0.017003741
68	0xbcb9fae8	-0.02270265
69	0xbd476223	-0.048677575
70	0xbb9dcde0	-0.004815802
71	0x3c12c3ab	0.008957784
72	0xbc44c327	-0.012009419
73	0xbd009e96	-0.03140124
74	0x3cd1c1cd	0.025605107
75	0x3c3d46fa	0.011552567
76	0x3d3a5ab0	0.045496643
77	0xbc81fde9	-0.015868144
78	0x3caa03c8	0.020753756
79	0x3c9f2baf	0.01943001
80	0x3d0b3de9	0.03399459
81	0xbd04a167	-0.032380488
82	0xbc5c3d70	-0.013442382
83	0x3ac7b851	0.0015237426
84	0x3d0a8128	0.03381458
85	0xbd37c863	-0.044868838
86	0x3c7f6db6	0.015590122
87	0xbd081975	-0.033227403
88	0x3cffcca2	0.031225506
89	0x3b620f6f	0.0034494062
90	0x3c19d383	0.009388807
91	0xba7d43e9	-0.00096613035
92	0x3bb20b12	0.0054334486
93	0x3caf6fb7	0.021415574
94	0xbbc4a241	-0.0060007875
95	0xbbfb4494	-0.0076680873
96	0x3c9c4f97	0.01908092
97	0x3c65f810	0.0140361935
98	0x3c9d8f66	0.019233417
99	0xbc421cc0	-0.011847675
100	0x3caee190	0.021347791
101	0xbccc466f	-0.02493593
102	0xbd01525a	-0.031572677
103	0xbc8f39c0	-0.017483592
104	0x3c33b2d3	0.010967928
105	0xbc26cdd7	-0.010180912
106	0xbc6a2d1a	-0.01429298
107	0xbc760492	-0.015015738
108	0x3c05e064	0.008171175
109	0xbc5866dd	-0.013208118
110	0xbc36c8a7	-0.011156238
111	0x3bd3a77b	0.006459174
112	0x3c140c2a	0.009036103
113	0xbcef06c0	-0.029178023
114	0xbc8dad44	-0.017294534
115	0x3c56a279	0.01310026
116	0x3cbf7d28	0.023375109
117	0xbd1b8c38	-0.03797552
118	0xbb04b569	-0.002024973
119	0xbc113752	-0.008863287
120	0xbc7dd24d	-0.015492034
121	0x3cb2dc75	0.021833638
122	0x3d03996c	0.032128736
123	0x3bc7db08	0.0060991086
124	0x3c87e3b5	0.016588071
125	0xbbb497f8	-0.00551128
126	0xbd19f808	-0.037590057
127	0x3c869202	0.016427044
128	0xb9be44cf	-0.0003629089
129	0x3c313a98	0.0108171925
130	0x39547af5	0.000202637
131	0xbbe0a2ee	-0.00685536
132	0x3cf49127	0.02985437
133	0x3ba12fff	0.0049190517
134	0xbd124569	-0.035710726
135	0x3a94f662	0.0011364932
136	0xbd254b62	-0.040355094
137	0x3ca973b2	0.02068505
138	0xbd205193	-0.039140295
139	0x3bf8495f	0.007577106
140	0xba98de6c	-0.0011662967
141	0xbcca75a4	-0.024714299
142	0xbc06ad2e	-0.00822
143	0xbca20087	-0.019775642
144	0x3a194684	0.00058469945
145	0x3bdfbded	0.006828061
146	0xbcb1d690	-0.021708757
147	0xbc2a5170	-0.010395393
148	0xbbd30d28	-0.0064407773
149	0x3c06035c	0.008179512
150	0x3cb85f7b	0.022506466
151	0x3c2aff4b	0.010436843
152	0xbca7ad69	-0.02046843
153	0xbca881cc	-0.020569704
154	0x3d20cd91	0.039258543
155	0x3c267e92	0.010162013
156	0xbc4c3bc0	-0.012465417
157	0x3adb8103	0.0016746823
158	0x3c65b5fb	0.014020438
159	0xbd03a1af	-0.032136615
160	0xbc837060	-0.016044796
161	0xbc7842f7	-0.015152684
162	0x3c59bfce	0.013290359
163	0x3cd98ffa	0.026557911
164	0xbcb0786c	-0.021541797
165	0x3d1b0bd7	0.03785309
166	0x3cdfed1d	0.027334744
167	0xbcbd0014	-0.023071326
168	0xbd074528	-0.033024937
169	0x3d0f78f6	0.035027467
170	0xbc2ca759	-0.010537946
171	0xbce003a5	-0.027345488
172	0xbc362781	-0.011117817
173	0x3c1739bd	0.0092300745
174	0x3d1bcf67	0.03803959
175	0xbcc58013	-0.024108922
176	0xbb254ba7	-0.0025222094
177	0xbcd9e7a4	-0.026599713
178	0x3b90ac13	0.004415044
179	0xbc1f736e	-0.00973211
180	0x3cd0587a	0.025432814
181	0x3c71d4a6	0.014760172
182	0x3ca8bc16	0.020597499
183	0xbc1a5b36	-0.00942116
184	0x3bfe718e	0.0077650016
185	0x3bcd0942	0.006257207
186	0xbb7184e5	-0.0036852893
187	0xbbebe814	-0.0071992967
188	0x3c81d216	0.015847247
189	0x3d2e5935	0.042565543
190	0xbc04ba51	-0.008101062
191	0x3d0cb9cb	0.034356873
192	0x3b812494	0.003941128
193	0x3b2fbf58	0.002681693
194	0xbc9cbd48	-0.019133225
195	0x3d172330	0.03689879
196	0xbbba30cc	-0.0056820866
197	0xbcba6a8a	-0.02275588
198	0xbc8c03d5	-0.017091671
199	0xbd1ad4da	-0.037800647
200	0xbbae5660	-0.0053203553
201	0x3c2e7fa8	0.010650553
202	0x3b902e6e	0.004400066
203	0x3cc513df	0.024057327
204	0x3c6fb351	0.014630155
205	0x3d423710	0.047415793
206	0x3d1050cb	0.0352333
207	0x3cdf4710	0.027255565
208	0x3cb83a58	0.022488758
209	0x3c5ab20b	0.013348113
210	0xbc82284a	-0.015888352
211	0x3c92403b	0.017852893
212	0xb9f85b17	-0.00047370113
213	0x3c51ddb0	0.012809202
214	0xbd0803df	-0.033206817
215	0x3c5db0b2	0.013530897
216	0xbbd232e5	-0.0064147585
217	0x3c2dd436	0.010609677
218	0x3b5f0f78	0.003403632
219	0xbc1dd235	-0.009632637
220	0x3c884ae4	0.016637273
221	0x3cd061f6	0.025437336
222	0x3d07baf9	0.033137295
223	0x3d15a99a	0.036538698
224	0xbb5881d1	-0.003303636
225	0x3c12a3d7	0.008950195
226	0xbbba2aae	-0.0056813573
227	0x3b4ac04b	0.003093737
228	0xb9a9f2e6	-0.00032415165
229	0x3aa517be	0.0012595577
230	0x3b31fea4	0.0027159834
231	0xbcf06324	-0.029344149
232	0xbcb81650	-0.022471577
233	0x3be682a8	0.0070346184
234	0xbc0cc751	-0.008592443
235	0x3abc5b8b	0.0014370544
236	0x3cdced01	0.026968481
237	0x3c97d425	0.018533776
238	0x3c3ac61e	0.011399774
239	0xbca4595d	-0.020062143
240	0x3cd9d97b	0.02659296
241	0x3cd21ce0	0.025648534
242	0x3ce8abca	0.028402228
243	0xbc4d34e3	-0.012524816
244	0xbcc5e621	-0.024157586
245	0x3ca2c6d8	0.019870207
246	0x3d279372	0.0409121
247	0x3d19dff8	0.03756711
248	0xbc25391f	-0.0100844195
249	0xbc44811e	-0.011993675
250	0x3c017022	0.00790027
251	0x3ccaf7f9	0.024776446
252	0x3d4ef3c4	0.05052544
253	0xbd03025f	-0.031984683
254	0x3b539552	0.0032285047
255	0x3ca207ad	0.01977905

bias f4 [64]
0	0x3bfc6dae	0.0077035045
1	0x3cb79328	0.022409037
2	0xbb1f4faf	-0.002430897
3	0x3d3c1de8	0.04592696
4	0x3d34d989	0.04415277
5	0xbb705b9b	-0.0036675695
6	0xbc566803	-0.013086322
7	0x3cbd06c7	0.02307452
8	0xbc3b64d8	-0.011437617
9	0xbd2cf05b	-0.04222141
10	0xbcbf8df3	-0.023383116
11	0xbd666d8d	-0.05625682
12	0xbbab88c7	-0.005234811
13	0xbbd4723d	-0.006483345
14	0x3c82f206	0.015984546
15	0xbd308fe3	-0.04310597
16	0x3c9f7d0e	0.01946881
17	0x3ca97643	0.020686274
18	0xbbbdcdc3	-0.005792351
19	0xbd06f348	-0.032946855
20	0x3bafc49f	0.005364015
21	0x3d8ad33d	0.06778572
22	0x3cf27147	0.02959503
23	0xbb8c5060	-0.0042820424
24	0x3b109e33	0.002206695
25	0x3d331157	0.04371771
26	0x3cedd98a	0.029034395
27	0x3c9b0410	0.018922836
28	0x3d523a5d	0.05132519
29	0xbc07a7b4	-0.00827973
30	0xbb85b5cc	-0.0040805098
31	0x3c7367e3	0.0148563115
32	0xbbdb16b2	-0.006686055
33	0xbbb3a614	-0.0054824445
34	0x3d20d757	0.039267864
35	0x3d394db1	0.045240108
36	0x3d26d6d1	0.04073221
37	0x3aec00b6	0.0018005583
38	0xbaef3167	-0.0018248976
39	0x3c99aa64	0.018758006
40	0xbc61b7ae	-0.013776703
41	0x3cd214b6	0.025644641
42	0xb91691be	-0.00014359408
43	0xbcfb8aa9	-0.030705767
44	0xbc30a7c4	-0.010782186
45	0x3cfd5e56	0.030928772
46	0x3c0c523a	0.008564526
47	0x3c418859	0.011812293
48	0x3ce8b80e	0.028408077
49	0xbbef05d4	-0.007294396
50	0x3d1d60ca	0.038422383
51	0xbd02c750	-0.03192836
52	0xbced64be	-0.028978702
53	0x3b609671	0.0034269358
54	0xbcc10815	-0.023563424
55	0xbcb63b6a	-0.022245128
56	0xbc28b3c2	-0.010296764
57	0xbc74adfc	-0.014934059
58	0xbd830583	-0.06397536
59	0x3c47376b	0.012159209
60	0x3ccddce8	0.02512975
61	0xbc4cdcb7	-0.012503794
62	0xbd3ae068	-0.045624167
63	0x3c9e444a	0.019319672

weight f4 [10, 64]
0	0xbe2577c4	-0.16158968
1	0xbe25358e	-0.1613371
2	0x3dbf8858	0.093521774
3	0xbdb74211	-0.08948148
4	0xbdcd0541	-0.10010768
5	0x3b5aad4b	0.003336745
6	0xbd71a3f2	-0.05899424
7	0x3dea9076	0.11453335
8	0x3e385784	0.18002135
9	0xbdfdc3d9	-0.123908706
10	0x3d60e267	0.054903414
11	0xbd19241a	-0.037387945
12	0xbc96a84c	-0.018390797
13	0xbca4a90f	-0.020100145
14	0x3d7b0355	0.061282475
15	0x3e39c668	0.18142092
16	0xbcd111d6	-0.0255212
17	0x3d8a8e8a	0.067654684
18	0x3e4227b0	0.18960452
19	0xbe2c2516	-0.16811022
20	0xbe76f682	-0.24117473
21	0xbe47f780	-0.19528008
22	0xbe162be1	-0.14665176
23	0xbcf72c98	-0.030172631
24	0x3bb4362d	0.0054996223
25	0xbd94fbba	-0.072745755
26	0x3dcc462f	0.09974324
27	0x3d735f72	0.059417196
28	0xbdf3a459	-0.11896581
29	0x3d88429c	0.0665333
30	0xbd8e3911	-0.06944478
31	0xbe9777f9	-0.2958372
32	0x3c76dcbf	0.015067278
33	0xbd9e7787	-0.07737642
34	0x3d775294	0.060381487
35	0xbcb5eb58	-0.022206947
36	0x3d321e4d	0.04348593
37	0xbe2509b6	-0.16116986
38	0xbe360cb7	-0.17778288
39	0xbd8dd411	-0.06925214
40	0x3dc9a03c	0.098450154
41	0x3e2ecd87	0.1707059
42	0x3e31512f	0.17316125
43	0x3e64ba59	0.22336711
44	0x3e240d2a	0.16020647
45	0xbdf58a09	-0.11989219
46	0x3e448b74	0.19193822
47	0x3e3bef1a	0.18352929
48	0x3de2abdd	0.110679366
49	0xbd1eb3b1	-0.038745586
50	0xbde54453	-0.111946724
51	0xbd2f912f	-0.042863067
52	0x3cf28a4f	0.029606966
53	0x3cc56d08	0.024099842
54	0x3e47b4c9	0.19502558
55	0x3e2ab663	0.16671138
56	0x3d7b8899	0.061409567
57	0x3d92774a	0.07151659
58	0x3e1f5034	0.15557939
59	0xbddb7675	-0.10715953
60	0xbe378487	-0.17921649
61	0xbe0d666f	-0.13808607
62	0x3d4a9e45	0.049467344
63	0x3cbff012	0.023429904
64	0xbdac64fa	-0.08417697
65	0xbe528f20	-0.2056241
66	0x3deecdb9	0.11660332
67	0xbe5bd3dc	-0.21467537
68	0x3d4a345c	0.04936634
69	0x3d940b27	0.0722869
70	0xbdcfe1de	-0.101505026
71	0xbde637fe	-0.112411484
72	0x3e79f56f	0.24410032
73	0x3dc3d5e3	0.0956228
74	0x3baf77a6	0.0053548394
75	0x3dbcdf3c	0.09222266
76	0xbdf8f141	-0.121553905
77	0xbc6bc6da	-0.014390672
78	0xbcd4b1c9	-0.02596368
79	0x3d43a0ed	0.047760893
80	0xbe8f176d	-0.2794756
81	0xbe05d29b	-0.13068621
82	0xbe2e8bdf	-0.17045544
83	0x3dbafaea	0.09129889
84	0x3c9a9edb	0.018874576
85	0x3df77bdf	0.120841734
86	0xbe02f632	-0.12789229
87	0xbe5fecc6	-0.21867666
88	0xbdadf79b	-0.084944926
89	0xbe36a7fc	-0.17837518
90	0xbd846c55	-0.06465975
91	0x3e4f475a	0.20242062
92	0xbe658481	-0.22413827
93	0xbd168dd0	-0.036756337
94	0x3aa4777c	0.0012547816
95	0x3e603c07	0.21897899
96	0x3e100136	0.14062962
97	0xbdccd3a3	-0.10001304
98	0xbe132b5b	-0.14372008
99	0x3db121bd	0.08649013
100	0xbe5edda5	-0.21764238
101	0x3e504f78	0.20342815
102	0xbd24c060	-0.040222526
103	0xbc85e513	-0.016344583
104	0x3e22bb15	0.15891679
105	0x3df49aa0	0.11943555
106	0xbd69b054	-0.057052925
107	0xbe5324dd	-0.20619531
108	0x3e93edbe	0.2889232
109	0x3df95bf7	0.12175744
110	0x3d2b4c42	0.041820772
111	0x3dc4148f	0.09574234
112	0xbdeff393	-0.1171638
113	0xbda06559	-0.078318305
114	0xbe4c4c1b	-0.19950907
115	0x3c968744	0.018375047
116	0x3e8ba97c	0.27277744
117	0x3dd1977b	0.10233971
118	0xbe5a9b22	-0.21348241
119	0xbe5db337	-0.21650396
120	0xbdb2a4e6	-0.08722858
121	0xbe97dbed	-0.29659978
122	0x3d62a0d6	0.055329166
123	0x3e5ff46e	0.21870586
124	0xbe666ee0	-0.22503233
125	0x3def5d03	0.116876625
126	0x3d922bf0	0.07137287
127	0x3d1e8ca2	0.038708337
128	0x3dbe2d44	0.092859775
129	0xbd6e14b6	-0.05812522
130	0xbe61fbaa	-0.22068658
131	0x3e2ddf25	0.16979654
132	0xbddfa972	-0.10920991
133	0xbe339c63	-0.17540126
134	0x3e1629fd	0.14664455
135	0x3d7dfb4a	0.062007226
136	0xbd41f713	-0.04735477
137	0x3dda5b3c	0.10661933
138	0x3b78ec4c	0.003798264
139	0xbe4fbcda	-0.20286885
140	0x3db7aedb	0.08968898
141	0xbc341746	-0.010991877
142	0xbe164a33	-0.14676742
143	0x3e4bb21c	0.19892162
144	0x3cdc043a	0.026857484
145	0x3e03a99b	0.12857668
146	0x3d5bfd08	0.053708106
147	0xbcfc2aa9	-0.03078206
148	0xbdd71c82	-0.10503484
149	0xbe730e7f	-0.23735999
150	0x3d8ff5df	0.07029318
151	0xbda47727	-0.08030539
152	0x3e2bc2be	0.16773507
153	0x3d5745b7	0.05255672
154	0x3d799d4b	0.060941022
155	0xbdfd4fb3	-0.12368717
156	0x3d859aae	0.065236434
157	0xbdf56a37	-0.119831495
158	0xbd884051	-0.066528924
159	0xbd5b1fe5	-0.053497214
160	0x3df25d5d	0.11834214
161	0x3cb5a480	0.022173166
162	0xbe097146	-0.13422117
163	0xbda4cb47	-0.080465846
164	0x3d01cfc1	0.03169227
165	0x3e3509f2	0.17679575
166	0x3da9f815	0.08299271
167	0xbe22f12c	-0.15912312
168	0x3e1ac2a5	0.15113313
169	0xbe5627ba	-0.20913592
170	0xbde58d52	-0.11208595
171	0x3e38d3f6	0.18049607
172	0xbd47d20c	-0.0487843
173	0xbe02a436	-0.12757954
174	0x3df53a9c	0.119740695
175	0x3d8311c9	0.063998766
176	0x3e09ebe5	0.13468893
177	0xbe4bee97	-0.19915234
178	0xbd91e5e8	-0.07123929
179	0xbe163b85	-0.14671142
180	0x3cc37d78	0.02386354
181	0xbc60b86d	-0.0137158455
182	0x3e07461f	0.13210343
183	0x3cec2be3	0.02882952
184	0xbdac7241	-0.0842023
185	0x3d4c089f	0.04981291
186	0xbe30e419	-0.17274512
187	0xbcfb9645	-0.030711303
188	0xbd3d2023	-0.046173226
189	0xbd51e56f	-0.051244196
190	0x3cdf11d7	0.027230186
191	0xbe81e19a	-0.25367433
192	0x3e262383	0.16224484
193	0x3d75ef77	0.060042825
194	0x3c3c7d44	0.011504475
195	0xbd2f7b4a	-0.042842187
196	0x3cc008cc	0.023441695
197	0xbdf3b06e	-0.11898886
198	0x3dec1a40	0.11528444
199	0x3dba70d6	0.09103553
200	0xbe42f68e	-0.19039366
201	0xbd81d505	-0.063394584
202	0xbdfd6043	-0.12371876
203	0xbdba4f9e	-0.09097217
204	0x3a716fbe	0.00092100713
205	0xbd0fefb5	-0.03514071
206	0xbda97fb6	-0.08276312
207	0xbc8d0b93	-0.017217433
208	0x3d12b704	0.03581907
209	0x3d987d84	0.07445815
210	0xbd17a878	-0.0370259
211	0xbdb2e2e5	-0.08734683
212	0xbdbc6efa	-0.092008546
213	0x3da59b82	0.080863014
214	0xba6f0c68	-0.0009118975
215	0x3dd29bf1	0.1028365
216	0xbdf946b7	-0.12171691
217	0x3d31f8e4	0.04345025
218	0x3df8de9a	0.12151833
219	0x3d83804b	0.06420954
220	0xbbc04a40	-0.0058682263
221	0x3d30b691	0.04314286
222	0x3ba45e0d	0.0050160945
223	0x3e409f55	0.1881078
224	0x3c94743a	0.018121827
225	0xbb997977	-0.004683669
226	0xbccedb94	-0.025251187
227	0xbe07c4ad	-0.1325862
228	0x3cd42d4a	0.025900502
229	0xbd84af73	-0.06478777
230	0xbd96bdee	-0.07360445
231	0x3e3aed02	0.18254474
232	0xbe06e87c	-0.13174623
233	0x3df13221	0.117771395
234	0x3ce505a8	0.027956799
235	0x3cfaadd9	0.030600475
236	0xbe10c8c5	-0.14139087
237	0xbc9c6cfa	-0.019094933
238	0xbdcf623c	-0.101261586
239	0xbdc10f90	-0.094267964
240	0xbe020fdd	-0.12701364
241	0x3bbb000c	0.0057067927
242	0xbdd62d22	-0.10457827
243	0x3def9286	0.11697869
244	0x3ceb3745	0.028712878
245	0xbe4e5bb8	-0.20152175
246	0x3e3e8563	0.1860557
247	0xbe2b83d1	-0.16749503
248	0xbd13d661	-0.03609312
249	0x3e3aaca1	0.18229915
250	0xbd677625	-0.056509156
251	0x3e3be410	0.18348718
252	0xbdb27816	-0.08714311
253	0xbe36e5a3	-0.17861037
254	0xbc2acca2	-0.010424765
255	0xbe498ed2	-0.19683388

bias f4 [10]
0	0xbe0d07c2	-0.1377249
1	0x3da4d338	0.08048099
2	0x3d8dc363	0.06922033
3	0x3c8ec20d	0.017426515
4	0x3e3ed2c9	0.18635096
5	0xbdea6739	-0.114454694
6	0x3d8d762b	0.069073044
7	0xbd52745c	-0.0513805
8	0xbcc88a12	-0.0244799
9	0x3d5e3013	0.054245066
